…
    "model.add(layers.Dense(512, activation='relu'))\n",
    "model.add(layers.Dense(9, activation='softmax'))"
   ]
  },
  {
   "cell_type": "code",
   "execution_count": 18,
   "id": "effac960",
   "metadata": {},
   "outputs": [
    {
     "name": "stdout",
     "output_type": "stream",
     "text": [
      "Model: \"sequential\"\n",
      "_________________________________________________________________\n",
      " Layer (type)                Output Shape              Param #   \n",
      "=================================================================\n",
      " conv2d (Conv2D)             (None, 148, 148, 32)      896       \n",
      "                                                                 \n",
      " max_pooling2d (MaxPooling2D  (None, 74, 74, 32)       0         \n",
      " )                                                               \n",
      "                                                                 \n",
      " conv2d_1 (Conv2D)           (None, 72, 72, 64)        18496     \n",
      "                                                                 \n",
      " max_pooling2d_1 (MaxPooling  (None, 36, 36, 64)       0         \n",
      " 2D)                                                             \n",
      "                                                                 \n",
      " conv2d_2 (Conv2D)           (None, 34, 34, 128)       73856     \n",
      "                                                                 \n",
      " max_pooling2d_2 (MaxPooling  (None, 17, 17, 128)      0         \n",
      " 2D)                                                             \n",
      "                                                                 \n",
      " conv2d_3 (Conv2D)           (None, 15, 15, 128)       147584    \n",
      "                                                                 \n",
      " max_pooling2d_3 (MaxPooling  (None, 7, 7, 128)        0         \n",
      " 2D)                                                             \n",
      "                                                                 \n",
      " flatten (Flatten)           (None, 6272)              0         \n",
      "                                                                 \n",
      " dense (Dense)               (None, 512)               3211776   \n",
      "                                                                 \n",
      " dense_1 (Dense)             (None, 9)                 4617      \n",
      "                                                                 \n",
      "=================================================================\n",
      "Total params: 3,457,225\n",
      "Trainable params: 3,457,225\n",
      "Non-trainable params: 0\n",
      "_________________________________________________________________\n"
     ]
    }
   ],
   "source": [
    "model.summary()  #Modelimizin özeti"
…
